…
:"display_data","data":{"text/plain":["model.safetensors:   0%|          | 0.00/990M [00:00<?, ?B/s]"],"application/vnd.jupyter.widget-view+json":{"version_major":2,"version_minor":0,"model_id":"3d27c58064d8462baaaa52b7017ba5cd"}},"metadata":{}},{"output_type":"display_data","data":{"text/plain":["generation_config.json:   0%|          | 0.00/147 [00:00<?, ?B/s]"],"application/vnd.jupyter.widget-view+json":{"version_major":2,"version_minor":0,"model_id":"ab8895430d7b42809193aa020b6409b3"}},"metadata":{}},{"output_type":"stream","name":"stdout","text":["T5ForConditionalGeneration(\n","  (shared): Embedding(32128, 768)\n","  (encoder): T5Stack(\n","    (embed_tokens): Embedding(32128, 768)\n","    (block): ModuleList(\n","      (0): T5Block(\n","        (layer): ModuleList(\n","          (0): T5LayerSelfAttention(\n","            (SelfAttention): T5Attention(\n","              (q): Linear(in_features=768, out_features=768, bias=False)\n","              (k): Linear(in_features=768, out_features=768, bias=False)\n","              (v): Linear(in_features=768, out_features=768, bias=False)\n","              (o): Linear(in_features=768, out_features=768, bias=False)\n","              (relative_attention_bias): Embedding(32, 12)\n","            )\n","            (layer_norm): T5LayerNorm()\n","            (dropout): Dropout(p=0.1, inplace=False)\n","          )\n","          (1): T5LayerFF(\n","            (DenseReluDense): T5DenseGatedActDense(\n","              (wi_0): Linear(in_features=768, out_features=2048, bias=False)\n","              (wi_1): Linear(in_features=768, out_features=2048, bias=False)\n","              (wo): Linear(in_features=2048, out_features=768, bias=False)\n","              (dropout): Dropout(p=0.1, inplace=False)\n","              (act): NewGELUActivation()\n","            )\n","            (layer_norm): T5LayerNorm()\n","            (dropout): Dropout(p=0.1, inplace=False)\n","          )\n","        )\n","      )\n","      (1-11): 11 x T5Block(\n","        (layer): ModuleList(\n","          (0): T5LayerSelfAttention(\n","            (SelfAttention): T5Attention(\n","              (q): Linear(in_features=768, out_features=768, bias=False)\n","              (k): Linear(in_features=768, out_features=768, bias=False)\n","              (v): Linear(in_features=768, out_features=768, bias=False)\n","              (o): Linear(in_features=768, out_features=768, bias=False)\n","            )\n","            (layer_norm): T5LayerNorm()\n","            (dropout): Dropout(p=0.1, inplace=False)\n","          )\n","          (1): T5LayerFF(\n","            (DenseReluDense): T5DenseGatedActDense(\n","              (wi_0): Linear(in_features=768, out_features=2048, bias=False)\n","              (wi_1): Linear(in_features=768, out_features=2048, bias=False)\n","              (wo): Linear(in_features=2048, out_features=768, bias=False)\n","              (dropout): Dropout(p=0.1, inplace=False)\n","              (act): NewGELUActivation()\n","            )\n","            (layer_norm): T5LayerNorm()\n","            (dropout): Dropout(p=0.1, inplace=False)\n","          )\n","        )\n","      )\n","    )\n","    (final_layer_norm): T5LayerNorm()\n","    (dropout): Dropout(p=0.1, inplace=False)\n","  )\n","  (decoder): T5Stack(\n","    (embed_tokens): Embedding(32128, 768)\n","    (block): ModuleList(\n","      (0): T5Block(\n","        (layer): ModuleList(\n","          (0): T5LayerSelfAttention(\n","            (SelfAttention): T5Attention(\n","              (q): Linear(in_features=768, out_features=768, bias=False)\n","              (k): Linear(in_features=768, out_features=768, bias=False)\n","              (v): Linear(in_features=768, out_features=768, bias=False)\n","              (o): Linear(in_features=768, out_features=768, bias=False)\n","              (relative_attention_bias): Embedding(32, 12)\n","            )\n","            (layer_norm): T5LayerNorm()\n","            (dropout): Dropout(p=0.1, inplace=False)\n","          )\n","          (1): T5LayerCrossAttention(\n","            (EncDecAttention): T5Attention(\n","              (q): Linear(in_features=768, out_features=768, bias=False)\n","              (k): Linear(in_features=768, out_features=768, bias=False)\n","              (v): Linear(in_features=768, out_features=768, bias=False)\n","              (o): Linear(in_features=768, out_features=768, bias=False)\n","            )\n","            (layer_norm): T5LayerNorm()\n","            (dropout): Dropout(p=0.1, inplace=False)\n","          )\n","          (2): T5LayerFF(\n","            (DenseReluDense): T5DenseGatedActDense(\n","              (wi_0): Linear(in_features=768, out_features=2048, bias=False)\n","              (wi_1): Linear(in_features=768, out_features=2048, bias=False)\n","              (wo): Linear(in_features=2048, out_features=768, bias=False)\n","              (dropout): Dropout(p=0.1, inplace=False)\n","              (act): NewGELUActivation()\n","            )\n","            (layer_norm): T5LayerNorm()\n","            (dropout): Dropout(p=0.1, inplace=False)\n","          )\n","        )\n","      )\n","      (1-11): 11 x T5Block(\n","        (layer): ModuleList(\n","          (0): T5LayerSelfAttention(\n","            (SelfAttention): T5Attention(\n","              (q): Linear(in_features=768, out_features=768, bias=False)\n","              (k): Linear(in_features=768, out_features=768, bias=False)\n","              (v): Linear(in_features=768, out_features=768, bias=False)\n","              (o): Linear(in_features=768, out_features=768, bias=False)\n","            )\n","            (layer_norm): T5LayerNorm()\n","            (dropout): Dropout(p=0.1, inplace=False)\n","          )\n","          (1): T5LayerCrossAttention(\n","            (EncDecAttention): T5Attention(\n","              (q): Linear(in_features=768, out_features=768, bias=False)\n","              (k): Linear(in_features=768, out_features=768, bias=False)\n","              (v): Linear(in_features=768, out_features=768, bias=False)\n","              (o): Linear(in_features=768, out_features=768, bias=False)\n","            )\n","            (layer_norm): T5LayerNorm()\n","            (dropout): Dropout(p=0.1, inplace=False)\n","          )\n","          (2): T5LayerFF(\n","            (DenseReluDense): T5DenseGatedActDense(\n","              (wi_0): Linear(in_features=768, out_features=2048, bias=False)\n","              (wi_1): Linear(in_features=768, out_features=2048, bias=False)\n","              (wo): Linear(in_features=2048, out_features=768, bias=False)\n","              (dropout): Dropout(p=0.1, inplace=False)\n","              (act): NewGELUActivation()\n","            )\n","            (layer_norm): T5LayerNorm()\n","            (dropout): Dropout(p=0.1, inplace=False)\n","          )\n","        )\n","      )\n","    )\n","    (final_layer_norm): T5LayerNorm()\n","    (dropout): Dropout(p=0.1, inplace=False)\n","  )\n","  (lm_head): Linear(in_features=768, out_features=32128, bias=False)\n",")\n"]}]},{"cell_type":"code","source":["print(model.decoder.block[-4:])  # Access the last 4 decoder layers"],"metadata":{"colab":{"base_uri":"https://localhost:8080/"},"id":"zIaW8EnOQe1q","executionInfo":{"status":"ok","timestamp":1742230942724,"user_tz":240,"elapsed":5,"user":{"displayName":"vanellsa acha","userId":"11413626297686659354"}},"outputId":"be575a9d-f588-4892-8b42-a04876672e96"},"execution_count":null,"outputs":[{"output_type":"stream","name":"stdout","text":["ModuleList(\n","  (0-3): 4 x T5Block(\n","    (layer): ModuleList(\n","      (0): T5LayerSelfAttention(\n","        (SelfAttention): T5Attention(\n","          (q): Linear(in_features=768, out_features=768, bias=False)\n","          (k): Linear(in_features=768, out_features=768, bias=False)\n","          (v): Linear(in_features=768, out_features=768, bias=False)\n","          (o): Linear(in_features=768, out_features=768, bias=False)\n","        )\n","        (layer_norm): T5LayerNorm()\n","        (dropout): Dropout(p=0.1, inplace=False)\n","      )\n","      (1): T5LayerCrossAttention(\n","        (EncDecAttention): T5Attention(\n","          (q): Linear(in_features=768, out_features=768, bias=False)\n","          (k): Linear(in_features=768, out_features=768, bias=False)\n","          (v): Linear(in_features=768, out_features=768, bias=False)\n","          (o): Linear(in_features=768, out_features=768, bias=False)\n","        )\n","        (layer_norm): T5LayerNorm()\n","        (dropout): Dropout(p=0.1, inplace=False)\n","      )\n","      (2): T5LayerFF(\n","        (DenseReluDense): T5DenseGatedActDense(\n","          (wi_0): Linear(in_features=768, out_features=2048, bias=False)\n","          (wi_1): Linear(in_features=768, out_features=2048, bias=False)\n","          (wo): Linear(in_features=2048, out_features=768, bias=False)\n","          (dropout): Dropout(p=0.1, inplace=False)\n","          (act): NewGELUActivation()\n","        )\n","        (layer_norm): T5LayerNorm()\n","        (dropout): Dropout(p=0.1, inplace=False)\n","      )\n","    )\n","  )\n",")\n"]}]},{"cell_type":"markdown","source":["Step 3: Freeze Lower Transformer Layers\n","To efficiently fine-tune FL
…
